# YOLOv5 🚀 by Ultralytics, GPL-3.0 license

# Parameters
nc: 80  # number of classes
depth_multiple: 1.33  # model depth multiple
width_multiple: 1.25  # layer channel multiple
anchors:
  - [7,8, 13,11, 10,24]  # P2/4
  - [21,19, 21,43, 38,29]  # P3/8
  - [60,42, 35,82, 96,70]  # P4/16
  - [62,142, 156,116, 134,219] # P5/32
  - [244,174 245,376, 454,304] #P6/64

# YOLOv5 v6.0 backbone
backbone:
  # [from, number, module, args]
  [ [ -1, 1, Focus, [ 64, 3 ] ],  # 0-P1/2
    [ -1, 1, Conv, [ 128, 3, 2 ] ],  # 1-P2/4
    [ -1, 3, C3, [ 128 ] ],
    [ -1, 1, Conv, [ 256, 3, 2 ] ],  # 3-P3/8
    [ -1, 9, C3, [ 256 ] ],
    [ -1, 1, Conv, [ 512, 3, 2 ] ],  # 5-P4/16
    [ -1, 9, C3, [ 512 ] ],
    [ -1, 1, Conv, [ 768, 3, 2 ] ],  # 7-P5/32
    [ -1, 3, C3, [ 768 ] ],
    [ -1, 1, Conv, [ 1024, 3, 2 ] ],  # 9-P6/64
    [ -1, 1, SPP, [ 1024, [ 3, 5, 7 ] ] ],
    [ -1, 3, C3, [ 1024, False ] ],  # 11
  ]

# YOLOv5 v6.0 head
head:
  [ [ -1, 1, Conv, [ 768, 1, 1 ] ],
    [ -1, 1, nn.Upsample, [ None, 2, 'nearest' ] ],
    [ [ -1, 8 ], 1, Concat, [ 1 ] ],  # cat backbone P5
    [ -1, 3, C3, [ 768, False ] ],  # 15

    [ -1, 1, Conv, [ 512, 1, 1 ] ],
    [ -1, 1, nn.Upsample, [ None, 2, 'nearest' ] ],
    [ [ -1, 6 ], 1, Concat, [ 1 ] ],  # cat backbone P4
    [ -1, 3, C3, [ 512, False ] ],  # 19

    [ -1, 1, Conv, [ 256, 1, 1 ] ],
    [ -1, 1, nn.Upsample, [ None, 2, 'nearest' ] ],
    [ [ -1, 4 ], 1, Concat, [ 1 ] ],  # cat backbone P3
    [ -1, 3, C3, [ 256, False ] ],  # 23 (P3/8-small)

    [ -1, 1, Conv, [ 128, 1, 1 ] ],
    [ -1, 1, nn.Upsample, [ None, 2, 'nearest' ] ],
    [ [ -1, 2 ], 1, Concat, [ 1 ] ],  # cat backbone P2
    [ -1, 3, C3, [ 128, False ] ],  # 27 (P2/4-xsmall)

    [ -1, 1, Conv, [ 128, 3, 2 ] ],
    [ [ -1, 24 ], 1, Concat, [ 1 ] ],  # cat head P3
    [ -1, 3, C3, [ 256, False ] ],  # 30 (P3/8-small)

    [ -1, 1, Conv, [ 256, 3, 2 ] ],
    [ [ -1, 20 ], 1, Concat, [ 1 ] ],  # cat head P4
    [ -1, 3, C3, [ 512, False ] ],  # 33 (P4/16-medium)

    [ -1, 1, Conv, [ 512, 3, 2 ] ],
    [ [ -1, 16 ], 1, Concat, [ 1 ] ],  # cat head P5
    [ -1, 3, C3, [ 768, False ] ],  # 36 (P5/32-large)

    [ -1, 1, Conv, [ 768, 3, 2 ] ],
    [ [ -1, 12 ], 1, Concat, [ 1 ] ],  # cat head P6
    [ -1, 3, C3, [ 1024, False ] ],  # 39 (P6/64-xlarge)

    [ [ 27, 30, 33, 36, 39 ], 1, Detect, [ nc, anchors ] ],  # Detect(P3, P4, P5, P6)
  ]
